drive/0.pt (torch, 39951 bytes, 24 tensors)

window f4 [1, 128]
6e-05 9.4828465e-05 0.00020178845 0.00038830325 0.0006667427 0.0010544173 0.0015735648 0.0022513252
0.0031196964 0.0042154677 0.0055801184 0.007259678 0.009304539 0.011769215 0.014712027 0.01819474
0.022282101 0.027041312 0.032541428 0.03885264 0.046045527 0.054190174 0.06335527 0.07360708
0.08500844 0.097617626 0.11148723 0.12666304 0.14318287 0.1610755 0.1803595 0.2010423
0.22311918 0.2465725 0.27137086 0.29746866 0.32480556 0.35330617 0.38288015 0.41342217
0.44481218 0.4769161 0.5095864 0.542663 0.5759745 0.60933965 0.64256823 0.6754635
0.7078234 0.73944277 0.7701153 0.7996356 0.82780135 0.8544154 0.87928814 0.90223926
0.9231 0.94171494 0.95794404 0.9716638 0.9827691 0.9911744 0.9968145 0.9996456
0.9996456 0.9968145 0.9911744 0.9827691 0.9716638 0.95794404 0.94171494 0.9231
0.90223926 0.87928814 0.8544154 0.82780135 0.7996356 0.7701153 0.73944277 0.7078234
0.6754635 0.64256823 0.60933965 0.5759745 0.542663 0.5095864 0.4769161 0.44481218
0.41342217 0.38288015 0.35330617 0.32480556 0.29746866 0.27137086 0.2465725 0.22311918
0.2010423 0.1803595 0.1610755 0.14318287 0.12666304 0.11148723 0.097617626 0.08500844
0.07360708 0.06335527 0.054190174 0.046045527 0.03885264 0.032541428 0.027041312 0.022282101
0.01819474 0.014712027 0.011769215 0.009304539 0.007259678 0.0055801184 0.0042154677 0.0031196964
0.0022513252 0.0015735648 0.0010544173 0.0006667427 0.00038830325 0.00020178845 9.4828465e-05 6e-05
00000000: 82a8 7b38 a5de c638 2d97 5339 2e95 cb39
00000010: 58c8 2e3a 6034 8a3a 1340 ce3a f88a 133b
00000020: d273 4c3b e821 8a3b 6dd9 b63b 98e2 ed3b
00000030: 1172 183c aad3 403c b70a 713c 230d 953c
00000040: f488 b63c be85 dd3c 294a 053d f223 1f3d
00000050: 3c9a 3c3d 84f6 5d3d 68c0 813d 4fbf 963d
00000060: e818 ae3d c0eb c73d 6b53 e43d f5b3 013e
00000070: 889e 123e faf0 243e 29b0 383e 08de 4d3e
00000080: 5b79 643e 807d 7c3e 1ff1 8a3e d04d 983e
00000090: ea4c a63e 8ce4 b43e de08 c43e 12ac d33e
000000a0: 6cbe e33e 592e f43e 4174 023f f6eb 0a3f
000000b0: 1173 133f affd 1b3f 5a7f 243f 2deb 2c3f
000000c0: ea33 353f 1f4c 3d3f 4726 453f ebb4 4c3f
000000d0: caea 533f f8ba 5a3f 0719 613f 27f9 663f
000000e0: 4850 6c3f 3b14 713f d23b 753f f5be 783f
000000f0: c196 7b3f 9bbd 7d3f 3c2f 7f3f c6e8 7f3f
00000100: c6e8 7f3f 3c2f 7f3f 9bbd 7d3f c196 7b3f
00000110: f5be 783f d23b 753f 3b14 713f 4850 6c3f
00000120: 27f9 663f 0719 613f f8ba 5a3f caea 533f
00000130: ebb4 4c3f 4726 453f 1f4c 3d3f ea33 353f
00000140: 2deb 2c3f 5a7f 243f affd 1b3f 1173 133f
00000150: f6eb 0a3f 4174 023f 592e f43e 6cbe e33e
00000160: 12ac d33e de08 c43e 8ce4 b43e ea4c a63e
00000170: d04d 983e 1ff1 8a3e 807d 7c3e 5b79 643e
00000180: 08de 4d3e 29b0 383e faf0 243e 889e 123e
00000190: f5b3 013e 6b53 e43d c0eb c73d e818 ae3d
000001a0: 4fbf 963d 68c0 813d 84f6 5d3d 3c9a 3c3d
000001b0: f223 1f3d 294a 053d be85 dd3c f488 b63c
000001c0: 230d 953c b70a 713c aad3 403c 1172 183c
000001d0: 98e2 ed3b 6dd9 b63b e821 8a3b d273 4c3b
000001e0: f88a 133b 1340 ce3a 6034 8a3a 58c8 2e3a
000001f0: 2e95 cb39 2d97 5339 a5de c638 82a8 7b38

mel_fb f4 [8, 65]
-0.0 0.0017446271 0.0010113104 0.0 0.0 0.0 0.0 0.0
0.0 0.0 0.0 0.0 0.0 0.0 0.0 0.0
0.0 0.0 0.0 0.0 0.0 0.0 0.0 0.0
0.0 0.0 0.0 0.0 0.0 0.0 0.0 0.0
0.0 0.0 0.0 0.0 0.0 0.0 0.0 0.0
0.0 0.0 0.0 0.0 0.0 0.0 0.0 0.0
0.0 0.0 0.0 0.0 0.0 0.0 0.0 0.0
0.0 0.0 0.0 0.0 0.0 0.0 0.0 0.0
0.0 0.0 0.0 0.001140392 0.0014957597 0.00012664778 0.0 0.0
0.0 0.0 0.0 0.0 0.0 0.0 0.0 0.0
0.0 0.0 0.0 0.0 0.0 0.0 0.0 0.0
0.0 0.0 0.0 0.0 0.0 0.0 0.0 0.0
0.0 0.0 0.0 0.0 0.0 0.0 0.0 0.0
0.0 0.0 0.0 0.0 0.0 0.0 0.0 0.0
0.0 0.0 0.0 0.0 0.0 0.0 0.0 0.0
0.0 0.0 0.0 0.0 0.0 0.0 0.0 0.0
0.0 0.0 0.0 0.0 0.0 0.00041439963 0.0014002941 0.00092260196
0.0002957225 0.0 0.0 0.0 0.0 0.0 0.0 0.0
0.0 0.0 0.0 0.0 0.0 0.0 0.0 0.0
0.0 0.0 0.0 0.0 0.0 0.0 0.0 0.0
0.0 0.0 0.0 0.0 0.0 0.0 0.0 0.0
0.0 0.0 0.0 0.0 0.0 0.0 0.0 0.0
0.0 0.0 0.0 0.0 0.0 0.0 0.0 0.0
0.0 0.0 0.0 0.0 0.0 0.0 0.0 0.0
0.0 0.0 0.0 0.0 0.0 0.0 0.0 0.0
0.00036051456 0.00075777736 0.0008124735 0.0005612581 0.00031004284 5.8827543e-05 0.0 0.0
0.0 0.0 0.0 0.0 0.0 0.0 0.0 0.0
0.0 0.0 0.0 0.0 0.0 0.0 0.0 0.0
0.0 0.0 0.0 0.0 0.0 0.0 0.0 0.0
0.0 0.0 0.0 0.0 0.0 0.0 0.0 0.0
0.0 0.0 0.0 0.0 0.0 0.0 0.0 0.0
0.0 0.0 0.0 0.0 0.0 0.0 0.0 0.0
00000000: 0000 0080 f9ab e43a f28d 843a 0000 0000
00000010: 0000 0000 0000 0000 0000 0000 0000 0000
00000020: 0000 0000 0000 0000 0000 0000 0000 0000
00000030: 0000 0000 0000 0000 0000 0000 0000 0000
00000040: 0000 0000 0000 0000 0000 0000 0000 0000
00000050: 0000 0000 0000 0000 0000 0000 0000 0000
00000060: 0000 0000 0000 0000 0000 0000 0000 0000
00000070: 0000 0000 0000 0000 0000 0000 0000 0000
00000080: 0000 0000 0000 0000 0000 0000 0000 0000
00000090: 0000 0000 0000 0000 0000 0000 0000 0000
000000a0: 0000 0000 0000 0000 0000 0000 0000 0000
000000b0: 0000 0000 0000 0000 0000 0000 0000 0000
000000c0: 0000 0000 0000 0000 0000 0000 0000 0000
000000d0: 0000 0000 0000 0000 0000 0000 0000 0000
000000e0: 0000 0000 0000 0000 0000 0000 0000 0000
000000f0: 0000 0000 0000 0000 0000 0000 0000 0000
00000100: 0000 0000 0000 0000 0000 0000 3579 953a
00000110: 5e0d c43a c1cc 0439 0000 0000 0000 0000
00000120: 0000 0000 0000 0000 0000 0000 0000 0000
00000130: 0000 0000 0000 0000 0000 0000 0000 0000
00000140: 0000 0000 0000 0000 0000 0000 0000 0000
00000150: 0000 0000 0000 0000 0000 0000 0000 0000
00000160: 0000 0000 0000 0000 0000 0000 0000 0000
00000170: 0000 0000 0000 0000 0000 0000 0000 0000
00000180: 0000 0000 0000 0000 0000 0000 0000 0000
00000190: 0000 0000 0000 0000 0000 0000 0000 0000
000001a0: 0000 0000 0000 0000 0000 0000 0000 0000
000001b0: 0000 0000 0000 0000 0000 0000 0000 0000
000001c0: 0000 0000 0000 0000 0000 0000 0000 0000
000001d0: 0000 0000 0000 0000 0000 0000 0000 0000
000001e0: 0000 0000 0000 0000 0000 0000 0000 0000
000001f0: 0000 0000 0000 0000 0000 0000 0000 0000
00000200: 0000 0000 0000 0000 0000 0000 0000 0000
00000210: 0000 0000 c743 d939 138a b73a c5da 713a
00000220: 340b 9b39 0000 0000 0000 0000 0000 0000
00000230: 0000 0000 0000 0000 0000 0000 0000 0000
00000240: 0000 0000 0000 0000 0000 0000 0000 0000
00000250: 0000 0000 0000 0000 0000 0000 0000 0000
00000260: 0000 0000 0000 0000 0000 0000 0000 0000
00000270: 0000 0000 0000 0000 0000 0000 0000 0000
00000280: 0000 0000 0000 0000 0000 0000 0000 0000
00000290: 0000 0000 0000 0000 0000 0000 0000 0000
000002a0: 0000 0000 0000 0000 0000 0000 0000 0000
000002b0: 0000 0000 0000 0000 0000 0000 0000 0000
000002c0: 0000 0000 0000 0000 0000 0000 0000 0000
000002d0: 0000 0000 0000 0000 0000 0000 0000 0000
000002e0: 0000 0000 0000 0000 0000 0000 0000 0000
000002f0: 0000 0000 0000 0000 0000 0000 0000 0000
00000300: 0000 0000 0000 0000 0000 0000 0000 0000
00000310: 0000 0000 0000 0000 0000 0000 0000 0000
00000320: 7203 bd39 94a5 463a 2cfc 543a 6521 133a
00000330: 3f8d a239 98bd 7638 0000 0000 0000 0000
00000340: 0000 0000 0000 0000 0000 0000 0000 0000
00000350: 0000 0000 0000 0000 0000 0000 0000 0000
00000360: 0000 0000 0000 0000 0000 0000 0000 0000
00000370: 0000 0000 0000 0000 0000 0000 0000 0000
00000380: 0000 0000 0000 0000 0000 0000 0000 0000
00000390: 0000 0000 0000 0000 0000 0000 0000 0000
000003a0: 0000 0000 0000 0000 0000 0000 0000 0000
000003b0: 0000 0000 0000 0000 0000 0000 0000 0000
000003c0: 0000 0000 0000 0000 0000 0000 0000 0000
000003d0: 0000 0000 0000 0000 0000 0000 0000 0000
000003e0: 0000 0000 0000 0000 0000 0000 0000 0000
000003f0: 0000 0000 0000 0000 0000 0000 0000 0000

window f4 [1, 1024]
6e-05 6.0533643e-05 6.2135165e-05 6.480632e-05 6.8550056e-05 7.337048e-05 7.927289e-05 8.626374e-05
9.435069e-05 0.00010354254 0.00011384928 0.0001252821 0.00013785332 0.00015157647 0.00016646624 0.0001825385
0.0001998103 0.00021829984 0.00023802655 0.00025901097 0.00028127484 0.00030484112 0.00032973386 0.00035597835
0.00038360103 0.0004126295 0.00044309258 0.00047502024 0.00050844357 0.0005433949 0.00057990773 0.00061801675
0.0006577577 0.0006991676 0.0007422847 0.00078714825 0.0008337988 0.000882278 0.00093262875 0.000984895
0.0010391221 0.0010953562 0.0011536448 0.0012140367 0.0012765817 0.0013413308 0.0014083362 0.0014776512
0.0015493303 0.0016234291 0.0017000044 0.0017791141 0.0018608175 0.0019451746 0.0020322471 0.0021220972
0.002214789 0.0023103866 0.0024089569 0.0025105665 0.0026152837 0.002723178 0.0028343196 0.0029487803
0.0030666331 0.0031879519 0.003312811 0.0034412874 0.0035734577 0.0037094008 0.0038491953 0.0039929226
0.004140664 0.0042925016 0.00444852 0.004608804 0.0047734394 0.004942513 0.005116113 0.005294329
0.0054772506 0.0056649693 0.005857577 0.006055168 0.006257836 0.0064656762 0.006678785 0.0068972604
0.0071212 0.007350704 0.007585873 0.007826807 0.008073609 0.008326382 0.008585232 0.0088502625
0.009121579 0.00939929 0.009683503 0.009974327 0.010271871 0.010576247 0.010887565 0.011205939
0.011531481 0.011864305 0.012204526 0.01255226 0.012907624 0.013270736 0.013641711 0.014020671
0.014407733 0.01480302 0.015206652 0.01561875 0.016039437 0.016468836 0.016907072 0.017354267
0.01781055 0.018276041 0.018750872 0.019235166 0.019729054 0.020232659 0.020746114 0.021269547
0.021803087 0.022346864 0.022901008 0.02346565 0.024040923 0.024626957 0.025223887 0.025831841
0.026450954 0.02708136 0.027723191 0.028376581 0.029041665 0.029718576 0.03040745 0.03110842
0.03182162 0.032547187 0.033285256 0.034035962 0.034799438 0.035575822 0.036365245 0.037167847
0.03798376 0.03881312 0.039656065 0.04051273 0.04138324 0.04226774 0.04316636 0.04407924
0.045006506 0.045948297 0.046904743 0.047875978 0.048862137 0.04986335 0.05087975 0.05191147
0.052958637 0.054021385 0.05509984 0.056194134 0.057304397 0.058430757 0.05957334 0.060732275
0.061907683 0.0630997 0.064308435 0.06553402 0.06677658 0.068036236 0.06931311 0.07060732
0.07191899 0.07324823 0.07459515 0.07595989 0.077342555 0.07874325 0.0801621 0.081599206
0.08305468 0.08452864 0.08602118 0.087532416 0.08906245 0.0906114 0.092179336 0.09376639
0.09537264 0.0969982 0.098643154 0.1003076 0.10199163 0.10369534 0.105418816 0.10716214
0.10892541 0.110708706 0.112512104 0.114335686 0.11617954 0.11804373 0.11992834 0.12183343
0.12375909 0.12570538 0.12767234 0.12966008 0.13166864 0.13369808 0.13574845 0.13781981
0.13991222 0.14202572 0.14416039 0.14631623 0.1484933 0.15069166 0.15291132 0.15515234
0.15741473 0.15969855 0.16200382 0.16433053 0.16667874 0.16904847 0.17143972 0.17385252
0.17628688 0.1787428 0.18122028 0.18371935 0.18623999 0.1887822 0.19134597 0.19393131
0.1965382 0.19916661 0.20181654 0.20448796 0.20718087 0.20989522 0.21263099 0.21538813
00000000: 82a8 7b38 81e5 7d38 904e 8238 a1e8 8738
00000010: 88c2 8f38 7ade 9938 4f3f a638 7ee8 b438
00000020: 24de c538 fa24 d938 5ec2 ee38 285e 0339
00000030: b88c 1039 80f0 1e39 718d 2e39 ce67 3f39
00000040: 2b84 5139 6be7 6439 c496 7939 ddcb 8739
00000050: 1278 9339 15d3 9f39 21e0 ac39 9ba2 ba39
00000060: 0f1e c939 3256 d839 e14e e839 230c f939
00000070: 1249 053a 9d72 0e3a f304 183a 6702 223a
00000080: 5f6d 2c3a 5848 373a e295 423a a058 4e3a
00000090: 4a93 5a3a ad48 673a a87b 743a 9817 813a
000000a0: 2733 883a 0e92 8f3a e535 973a 5020 9f3a
000000b0: f952 a73a 98cf af3a ec97 b83a bfad c13a
000000c0: e612 cb3a 3ec9 d43a afd2 de3a 2a31 e93a
000000d0: ade6 f33a 3bf5 fe3a 732f 053b e212 0b3b
000000e0: fe25 113b db69 173b 97df 1d3b 5188 243b
000000f0: 2e65 2b3b 5877 323b febf 393b 5340 413b
00000100: 91f9 483b f5ec 503b bf1b 593b 3987 613b
00000110: ac30 6a3b 6b19 733b c842 7c3b 10d7 823b
00000120: 68ae 873b 1da8 8c3b e4c4 913b 7305 973b
00000130: 836a 9c3b cef4 a13b 11a5 a73b 0d7c ad3b
00000140: 827a b33b 35a1 b93b ebf0 bf3b 6e6a c63b
00000150: 880e cd3b 06de d33b b6d9 da3b 6a02 e23b
00000160: f558 e93b 2dde f03b ea92 f83b 023c 003c
00000170: 2c47 043c 616b 083c 13a9 0c3c b100 113c
00000180: ad72 153c 7bff 193c 8ea7 1e3c 5c6b 233c
00000190: 5a4b 283c ff47 2d3c c261 323c 1d99 373c
000001a0: 89ee 3c3c 8062 423c 7ef5 473c ffa7 4d3c
000001b0: 807a 533c 806d 593c 7c81 5f3c f5b6 653c
000001c0: 6a0e 6c3c 5e88 723c 5225 793c c9e5 7f3c
000001d0: 2365 833c a7e9 863c b380 8a3c 892a 8e3c
000001e0: 6ee7 913c a3b7 953c 6e9b 993c 1193 9d3c
000001f0: d39e a13c f6be a53c c1f3 a93c 793d ae3c
00000200: 639c b23c c510 b73c e59a bb3c 093b c03c
00000210: 78f1 c43c 79be c93c 53a2 ce3c 4c9d d33c
00000220: acaf d83c bad9 dd3c bf1b e33c 0176 e83c
00000230: c9e8 ed3c 5f74 f33c 0b19 f93c 16d7 fe3c
00000240: 6357 023d 3350 053d 1f56 083d 4b69 0b3d
00000250: db89 0e3d f4b7 113d b9f3 143d 503d 183d
00000260: dc94 1b3d 82fa 1e3d 666e 223d adf0 253d
00000270: 7981 293d f020 2d3d 36cf 303d 6f8c 343d
00000280: be58 383d 4834 3c3d 301f 403d 9a19 443d
00000290: aa23 483d 833d 4c3d 4967 503d 1fa1 543d
000002a0: 28eb 583d 8745 5d3d 5fb0 613d d22b 663d
000002b0: 04b8 6a3d 1755 6f3d 2d03 743d 68c2 783d
000002c0: e992 7d3d 6a3a 813d 24b4 833d b336 863d
000002d0: 29c2 883d 9556 8b3d 08f4 8d3d 929a 903d
000002e0: 434a 933d 2b03 963d 58c5 983d dc90 9b3d
000002f0: c665 9e3d 2444 a13d 072c a43d 7c1d a73d
00000300: 9218 aa3d 5a1d ad3d df2b b03d 3244 b33d
00000310: 6066 b63d 7892 b93d 85c8 bc3d 9808 c03d
00000320: bb52 c33d fea6 c63d 6c05 ca3d 126e cd3d
00000330: fde0 d03d 395e d43d d2e5 d73d d377 db3d
00000340: 4914 df3d 3fbb e23d bf6c e63d d428 ea3d
00000350: 8aef ed3d e9c0 f13d fd9c f53d ce83 f93d
00000360: 6875 fd3d e9b8 003e 8abc 023e 9dc5 043e
00000370: 25d4 063e 26e8 083e a401 0b3e a320 0d3e
00000380: 2645 0f3e 316f 113e c89e 133e ecd3 153e
00000390: a10e 183e ea4e 1a3e c994 1c3e 41e0 1e3e
000003a0: 5431 213e 0488 233e 54e4 253e 4346 283e
000003b0: d5ad 2a3e 0b1b 2d3e e58d 2f3e 6506 323e
000003c0: 8c84 343e 5a08 373e cf91 393e ed20 3c3e
000003d0: b2b5 3e3e 1f50 413e 33f0 433e ee95 463e
000003e0: 4f41 493e 55f2 4b3e ffa8 4e3e 4b65 513e
000003f0: 3927 543e c6ee 563e f0bb 593e b58e 5c3e

mel_fb f4 [8, 513]
-0.0 0.00021807839 0.00043615678 0.00065423513 0.00087231357 0.0010903919 0.0013084703 0.0015265486
0.0017446271 0.0019627055 0.0021807838 0.0021017021 0.0018836239 0.0016655455 0.001447467 0.0012293888
0.0010113104 0.000793232 0.00057515356 0.00035707522 0.00013899682 0.0 0.0 0.0
0.0 0.0 0.0 0.0 0.0 0.0 0.0 0.0
0.0 0.0 0.0 0.0 0.0 0.0 0.0 0.0
0.0 0.0 0.0 0.0 0.0 0.0 0.0 0.0
0.0 0.0 0.0 0.0 0.0 0.0 0.0 0.0
0.0 0.0 0.0 0.0 0.0 0.0 0.0 0.0
0.0 0.0 0.0 0.0 0.0 0.0 0.0 0.0
0.0 0.0 0.0 0.0 0.0 0.0 0.0 0.0
0.0 0.0 0.0 0.0 0.0 0.0 0.0 0.0
0.0 0.0 0.0 0.0 0.0 0.0 0.0 0.0
0.0 0.0 0.0 0.0 0.0 0.0 0.0 0.0
0.0 0.0 0.0 0.0 0.0 0.0 0.0 0.0
0.0 0.0 0.0 0.0 0.0 0.0 0.0 0.0
0.0 0.0 0.0 0.0 0.0 0.0 0.0 0.0
0.0 0.0 0.0 0.0 0.0 0.0 0.0 0.0
0.0 0.0 0.0 0.0 0.0 0.0 0.0 0.0
0.0 0.0 0.0 0.0 0.0 0.0 0.0 0.0
0.0 0.0 0.0 0.0 0.0 0.0 0.0 0.0
0.0 0.0 0.0 0.0 0.0 0.0 0.0 0.0
0.0 0.0 0.0 0.0 0.0 0.0 0.0 0.0
0.0 0.0 0.0 0.0 0.0 0.0 0.0 0.0
0.0 0.0 0.0 0.0 0.0 0.0 0.0 0.0
0.0 0.0 0.0 0.0 0.0 0.0 0.0 0.0
0.0 0.0 0.0 0.0 0.0 0.0 0.0 0.0
0.0 0.0 0.0 0.0 0.0 0.0 0.0 0.0
0.0 0.0 0.0 0.0 0.0 0.0 0.0 0.0
0.0 0.0 0.0 0.0 0.0 0.0 0.0 0.0
0.0 0.0 0.0 0.0 0.0 0.0 0.0 0.0
0.0 0.0 0.0 0.0 0.0 0.0 0.0 0.0
0.0 0.0 0.0 0.0 0.0 0.0 0.0 0.0
00000000: 0000 0080 f9ab 6439 f9ab e439 fa80 2b3a
00000010: f9ab 643a 7beb 8e3a fa80 ab3a 7916 c83a
00000020: f9ab e43a bca0 003b 7beb 0e3b b6bc 093b
00000030: eee3 f63a 6f4e da3a efb8 bd3a 7123 a13a
00000040: f28d 843a e6f0 4f3a e7c5 163a d335 bb39
00000050: adbf 1139 0000 0000 0000 0000 0000 0000
00000060: 0000 0000 0000 0000 0000 0000 0000 0000
00000070: 0000 0000 0000 0000 0000 0000 0000 0000
00000080: 0000 0000 0000 0000 0000 0000 0000 0000
00000090: 0000 0000 0000 0000 0000 0000 0000 0000
000000a0: 0000 0000 0000 0000 0000 0000 0000 0000
000000b0: 0000 0000 0000 0000 0000 0000 0000 0000
000000c0: 0000 0000 0000 0000 0000 0000 0000 0000
000000d0: 0000 0000 0000 0000 0000 0000 0000 0000
000000e0: 0000 0000 0000 0000 0000 0000 0000 0000
000000f0: 0000 0000 0000 0000 0000 0000 0000 0000
00000100: 0000 0000 0000 0000 0000 0000 0000 0000
00000110: 0000 0000 0000 0000 0000 0000 0000 0000
00000120: 0000 0000 0000 0000 0000 0000 0000 0000
00000130: 0000 0000 0000 0000 0000 0000 0000 0000
00000140: 0000 0000 0000 0000 0000 0000 0000 0000
00000150: 0000 0000 0000 0000 0000 0000 0000 0000
00000160: 0000 0000 0000 0000 0000 0000 0000 0000
00000170: 0000 0000 0000 0000 0000 0000 0000 0000
00000180: 0000 0000 0000 0000 0000 0000 0000 0000
00000190: 0000 0000 0000 0000 0000 0000 0000 0000
000001a0: 0000 0000 0000 0000 0000 0000 0000 0000
000001b0: 0000 0000 0000 0000 0000 0000 0000 0000
000001c0: 0000 0000 0000 0000 0000 0000 0000 0000
000001d0: 0000 0000 0000 0000 0000 0000 0000 0000
000001e0: 0000 0000 0000 0000 0000 0000 0000 0000
000001f0: 0000 0000 0000 0000 0000 0000 0000 0000
00000200: 0000 0000 0000 0000 0000 0000 0000 0000
00000210: 0000 0000 0000 0000 0000 0000 0000 0000
00000220: 0000 0000 0000 0000 0000 0000 0000 0000
00000230: 0000 0000 0000 0000 0000 0000 0000 0000
00000240: 0000 0000 0000 0000 0000 0000 0000 0000
00000250: 0000 0000 0000 0000 0000 0000 0000 0000
00000260: 0000 0000 0000 0000 0000 0000 0000 0000
00000270: 0000 0000 0000 0000 0000 0000 0000 0000
00000280: 0000 0000 0000 0000 0000 0000 0000 0000
00000290: 0000 0000 0000 0000 0000 0000 0000 0000
000002a0: 0000 0000 0000 0000 0000 0000 0000 0000
000002b0: 0000 0000 0000 0000 0000 0000 0000 0000
000002c0: 0000 0000 0000 0000 0000 0000 0000 0000
000002d0: 0000 0000 0000 0000 0000 0000 0000 0000
000002e0: 0000 0000 0000 0000 0000 0000 0000 0000
000002f0: 0000 0000 0000 0000 0000 0000 0000 0000
00000300: 0000 0000 0000 0000 0000 0000 0000 0000
00000310: 0000 0000 0000 0000 0000 0000 0000 0000
00000320: 0000 0000 0000 0000 0000 0000 0000 0000
00000330: 0000 0000 0000 0000 0000 0000 0000 0000
00000340: 0000 0000 0000 0000 0000 0000 0000 0000
00000350: 0000 0000 0000 0000 0000 0000 0000 0000
00000360: 0000 0000 0000 0000 0000 0000 0000 0000
00000370: 0000 0000 0000 0000 0000 0000 0000 0000
00000380: 0000 0000 0000 0000 0000 0000 0000 0000
00000390: 0000 0000 0000 0000 0000 0000 0000 0000
000003a0: 0000 0000 0000 0000 0000 0000 0000 0000
000003b0: 0000 0000 0000 0000 0000 0000 0000 0000
000003c0: 0000 0000 0000 0000 0000 0000 0000 0000
000003d0: 0000 0000 0000 0000 0000 0000 0000 0000
000003e0: 0000 0000 0000 0000 0000 0000 0000 0000
000003f0: 0000 0000 0000 0000 0000 0000 0000 0000

weight f4 [1, 1, 3, 3]
-0.14309947 -0.3278699 0.1788321 0.08209328 -0.26329204 -0.26139545 -0.16626494 0.07810756
-0.3279302
00000000: ab88 12be 90de a7be c31f 373e 8620 a83d
00000010: 37ce 86be a0d5 85be 5b41 2abe dbf6 9f3d
00000020: 78e6 a7be

weight f4 [1, 1, 3, 3]
0.26485115 0.28292716 -0.14765751 0.03821556 -0.1247776 -0.048211694 -0.15786688 0.025373101
-0.13460407
00000000: 929a 873e d4db 903e 8833 17be eb87 1c3d
00000010: 668b ffbd a079 45bd dba7 21be 40db cf3c
00000020: a6d5 09be

weight f4 [4, 2, 3, 3]
0.12033363 0.04606945 -0.20575498 0.10536301 -0.09824833 -0.048833 0.096644156 0.1570078
0.14455593 0.023244232 -0.11970416 0.18765141 0.16523421 0.10676413 -0.13405259 -0.14263445
-0.08259203 0.211331 -0.09836734 0.06270896 -0.04752884 -0.15196592 -0.0055073397 0.18990113
0.03534896 -0.1386957 0.102418035 0.1391403 0.01871606 0.08224981 -0.10481113 0.07692959
0.14466509 0.22126783 -0.15579712 -0.22753157 -0.1381656 -0.0065912916 0.07244949 0.0029379597
0.08205252 -0.14680003 -0.019762676 -0.039862916 0.12602611 0.11152913 0.0743102 0.09676139
0.20089208 -0.13390703 -0.049490757 -0.13531232 -0.0320274 -0.13236055 0.19880636 -0.0967004
0.18651915 -0.09129524 -0.219734 0.10256016 -0.122384846 -0.10552369 0.14826126 -0.19083245
-0.04770848 -0.1663412 0.031944603 -0.07879026 0.13000697 0.05480582 0.02624495 0.17635047
00000000: 7a71 f63d 52b3 3c3d 6fb1 52be 90c8 d73d
00000010: 6c36 c9bd 1d05 48bd 5fed c53d a7c6 203e
00000020: 7806 143e b06a be3c 7427 f5bd b127 403e
00000030: 2833 293e 27a7 da3d 1545 09be c40e 12be
00000040: 0326 a9bd 2767 583e d174 c9bd 8e6d 803d
00000050: 9aad 42bd f49c 1bbe ea76 b4bb 7175 423e
00000060: 12ca 103d 3f06 0ebe 8cc0 d13d cb7a 0e3e
00000070: 6c52 993c 9772 a83d 38a7 d6bd 438d 9d3d
00000080: 1623 143e 0994 623e 4889 1fbe 09fe 68be
00000090: 487b 0dbe c3fb d7bb 6660 943d c98a 403b
000000a0: 270b a83d bf52 16be 56e5 a1bc 4c47 23bd
000000b0: fd0c 013e 6269 e43d f22f 983d d62a c63d
000000c0: a7b6 4d3e ed1e 09be d2b6 4abd 508f 0abe
000000d0: 2a2f 03bd 8689 07be e593 4b3e dc0a c6bd
000000e0: e0fe 3e3e 00f9 babd f301 61be 100b d23d
000000f0: e8a4 fabd ce1c d8bd cdd1 173e 9569 43be
00000100: f869 43bd 5955 2abe 58d8 023d ca5c a1bd
00000110: 8c20 053e 117c 603d a6ff d63c 3895 343e

bias f4 [4]
-0.13023268 -0.22840428 -0.17841965 0.09786703
00000000: b75b 05be d0e2 69be a4b3 36be 826e c83d

weight f4 [2, 4]
0.26733002 -0.42515597 0.3257057 0.41589296 0.16983092 -0.32604626 -0.46444052 -0.25016668
00000000: 7bdf 883e 0bae d9be e6c2 a63e ecef d43e
00000010: 28e8 2d3e 89ef a6be 26cb edbe d915 80be

bias f4 [2]
-0.18580069 0.30943486
00000000: 8942 3ebe 3f6e 9e3e

weight f4 [4, 2]
0.6152232 0.51419246 0.09761161 -0.2337737 0.38446784 -0.41668493 0.34388846 0.08612935
00000000: 457f 1d3f 1ea2 033f 99e8 c73d 5f62 6fbe
00000010: f8d8 c43e ba57 d5be 2612 b03e 9664 b03d

bias f4 [4]
0.03970645 0.39282 -0.33732253 0.27617836
00000000: 3ba3 223d b41f c93e 8ab5 acbe 4067 8d3e

weight f4 [1, 4]
0.0804795 -0.010418565 -0.3894147 -0.34161508
00000000: 70d2 a43d a1b2 2abc 5d61 c7be 2ce8 aebe

weight f4 [1, 2, 7, 7]
0.051951848 -0.067425676 0.06998572 -0.010535951 -0.022674927 -0.013603991 -0.020929042 0.10038351
-0.027359031 -0.032470886 0.050299104 -0.032296874 -0.07301985 0.094628766 -0.07449019 -0.023748957
0.019773213 0.07096258 0.029770374 -0.06434567 0.023142964 -0.0050911037 0.0044944193 0.05434505
0.088060044 -0.08234869 0.003016353 -0.098714136 -0.0651077 -0.0746433 0.014875036 -0.008944521
0.02620046 -0.01924559 0.018835494 0.03776349 0.019370062 -0.0456904 0.04703546 -0.087852985
0.071872465 -0.05518821 0.06511547 -0.039122984 0.060071073 0.0052817855 -0.047686752 -0.015061296
-0.08730865 -0.0007336382 -0.054245256 -0.06636871 -0.011769878 0.07461176 -0.065168634 -0.040986322
-0.054494645 -0.05431733 -0.030697897 0.024563182 0.023807421 0.03174272 -0.0571214 0.050612528
-0.078729264 -0.016633434 -0.07787221 -0.029725645 -0.048556548 0.059276093 0.017801516 -0.03052979
0.039906688 -0.06845664 -0.014816315 -0.008105702 0.056974985 -0.0021109767 0.0027325246 0.10288665
0.042162523 -0.007929593 0.0058820043 0.030121459 0.025110506 0.012682524 0.07253446 0.003069704
0.047241483 -0.008346867 -0.05217848 -0.028784757 -0.09094451 -0.08405344 -0.03014092 -0.07232825
0.075601526 0.07813633
00000000: 76cb 543d 7916 8abd ac54 8f3d fb9e 2cbc
00000010: c5c0 b9bc 46e3 5ebc 6273 abbc df95 cd3d
00000020: 0c20 e0bc 3100 05bd 6f06 4e3d ba49 04bd
00000030: 6e8b 95bd bacc c13d 508e 98bd 2c8d c2bc
00000040: 6ffb a13c d454 913d 00e1 f33c aac7 83bd
00000050: 5096 bd3c 46d3 a6bb ec45 933b ea98 5e3d
00000060: d358 b43d 6ea6 a8bd 01ae 453b a32a cabd
00000070: 3057 85bd 96de 98bd 6cb6 733c 0a8c 12bc
00000080: 59a2 d63c eda8 9dbc e54c 9a3c e4ad 1a3d
00000090: f7ad 9e3c db25 3bbd 41a8 403d 44ec b3bd
000000a0: df31 933d 080d 62bd 425b 853d 6c3f 20bd
000000b0: 160d 763d d412 ad3b 2f53 43bd a7c3 76bc
000000c0: e1ce b2bd a051 40ba 4630 5ebd 51ec 87bd
000000d0: 72d6 40bc 0dce 983d 2277 85bd 46e1 27bd
000000e0: c735 5fbd d97b 5ebd 287a fbbc ba38 c93c
000000f0: c807 c33c a804 023d 21f8 69bd 154f 4f3d
00000100: cf3c a1bd d742 88bc 777b 9fbd 3283 f3bc
00000110: 3be3 46bd 7dcb 723d 7cd4 913c 9c19 fabc
00000120: 3275 233d ff32 8cbd 21c0 72bc c7cd 04bc
00000130: 9a5e 693d 5058 0abb 2814 333b 3cb6 d23d
00000140: 9cb2 2c3d 20eb 01bc d4bd c03b 47c1 f63c
00000150: 8cb4 cd3c 5cca 4f3c f28c 943d 162d 493b
00000160: 4980 413d 4cc1 08bc 1ab9 55bd 03ce ebbc
00000170: 1e41 babd 3624 acbd 17ea f6bc d520 94bd
00000180: f9d4 9a3d f105 a03d

weight_ih_l0 f4 [16, 4]
-0.07989927 0.20809487 0.4151975 -0.07610247 0.48929584 -0.25795186 0.36861208 -0.0307995
0.33010677 -0.05952829 -0.3880063 0.035027765 -0.38968462 -0.1313686 -0.011702856 0.46739173
0.13750152 0.049002606 -0.29150778 0.09210652 -0.27760512 0.062319916 0.32228252 -0.26262426
0.3793951 -0.16887641 0.32485116 0.3824531 0.302012 0.15486331 -0.028821789 0.047090963
-0.05216588 0.056841187 0.32786494 -0.124349184 -0.48490033 0.3184764 -0.21885848 0.12644349
0.0910326 -0.2685063 -0.20991655 0.21535563 -0.02052278 0.09028416 0.12920777 0.024506409
0.34634316 0.0897628 -0.14819704 0.2761302 -0.4053614 0.40031344 -0.25446266 0.14840615
-0.13389297 0.12136265 -0.43630898 0.038756788 0.2780883 0.35783017 -0.36235997 -0.14803225
00000000: 3aa2 a3bd d216 553e c494 d43e 9ddb 9bbd
00000010: fc84 fa3e 4412 84be b9ba bc3e 3c4f fcbc
00000020: c103 a93e f0d3 73bd c3a8 c6be 4679 0f3d
00000030: be84 c7be 7e85 06be 56bd 3fbc f84d ef3e
00000040: 33cd 0c3e f5b6 483d 8240 95be 58a2 bc3d
00000050: 4222 8ebe 2b43 7f3d 3702 a53e b076 86be
00000060: 1340 c23e f0ed 2cbe e452 a63e e5d0 c33e
00000070: 51a1 9a3e 7d94 1e3e ac1b ecbc 74e2 403d
00000080: e4ab 55bd 4ed2 683d eadd a73e c9aa febd
00000090: db44 f8be 570f a33e 701c 60be 677a 013e
000000a0: 4d6f ba3d a879 89be 5df4 56be 3086 5c3e
000000b0: 641f a8bc e7e6 b83d 0b4f 043e aac1 c83c
000000c0: e453 b13e 8fd5 b73d f7c0 17be f060 8d3e
000000d0: 888b cfbe e2f5 cc3e ee48 82be c8f7 173e
000000e0: 3d1b 09be fb8c f83d e463 dfbe 70bf 1e3d
000000f0: 9761 8e3e 8435 b73e 3f87 b9be c495 17be

weight_hh_l0 f4 [16, 4]
0.32122108 -0.48824993 0.2905456 -0.17510282 0.48130214 -0.3102712 -0.46514118 -0.2612841
0.32469398 0.3928005 0.020410923 0.13999179 -0.18422845 -0.42213598 -0.21373723 0.42494303
0.015407537 0.34987092 0.28879768 -0.30603132 -0.3983628 0.056653008 -0.13793278 -0.41414154
0.10101659 -0.3938297 0.37743494 -0.19751348 -0.123253316 -0.23818544 -0.30948976 0.041966595
-0.21141347 0.33676666 0.43894994 -0.48351464 0.48772544 0.0022283886 0.4823508 0.32927215
-0.29870412 -0.22186095 -0.012533945 -0.17542945 -0.03407515 0.1477484 -0.39273235 0.0425815
0.45787042 0.03843458 0.35793495 -0.018492643 -0.3077705 -0.5047505 -0.47509995 -0.2979498
-0.24711522 0.2724182 -0.5048498 -0.4337974 -0.46241853 -0.32876855 -0.02169116 0.27723774
00000000: 1777 a43e e5fb f9be 65c2 943e 274e 33be
00000010: 3c6d f63e dedb 9ebe fc26 eebe 08c7 85be
00000020: 4a3e a63e 261d c93e cf34 a73c 025a 0f3e
00000030: 62a6 3cbe 3522 d8be efdd 5abe 2292 d93e
00000040: e56f 7c3c 4822 b33e 4add 933e 23b0 9cbe
00000050: 35f6 cbbe fc0c 683d 403e 0dbe 5c0a d4be
00000060: c9e1 ce3d 0ca4 c9be 273f c13e f940 4abe
00000070: 3c6c fcbd e2e6 73be 7175 9ebe 2ae5 2b3d
00000080: c67c 58be ae6c ac3e 0cbe e03e 3b8f f7be
00000090: 26b7 f93e 280a 123b aff6 f63e 5c96 a83e
000000a0: bfef 98be 842f 63be 2d5b 4dbc c7a3 33be
000000b0: 6292 0bbd 5b4b 173e 3714 c9be f069 2e3d
000000c0: fe6d ea3e 946d 1d3d 4043 b73e e27d 97bc
000000d0: 1894 9dbe 5437 01bf 4d40 f3be e08c 98be
000000e0: c60b 7dbe 667a 8b3e d63d 01bf b11a debe
000000f0: 1fc2 ecbe 5a54 a8be a9b1 b1bc 1bf2 8d3e

bias_ih_l0 f4 [16]
0.12693925 -0.058152385 -0.35995948 -0.3445521 -0.35051495 -0.15524885 0.053730927 -0.4119867
0.3792436 0.4071429 0.27152878 -0.40476868 -0.28718498 0.0800939 0.013558262 -0.43338484
00000000: 5dfc 013e 3231 6ebd 9c4c b8be 2269 b0be
00000010: b276 b3be 8ef9 1ebe f614 5c3d ecef d2be
00000020: 382c c23e 0975 d03e d205 8b3e d73d cfbe
00000030: e909 93be 4508 a43d 7923 5e3c 9ee4 ddbe

bias_hh_l0 f4 [16]
0.3355946 0.4098077 0.26720116 -0.42670953 -0.435341 0.2602342 -0.48362997 0.45976222
-0.2586355 0.37559465 0.33059198 -0.37780476 0.14292115 -0.4748345 -0.07292467 -0.19540776
00000000: 0ed3 ab3e 51d2 d13e 97ce 883e ac79 dabe
00000010: 04e5 debe 6b3d 853e 599e f7be f465 eb3e
00000020: df6b 84be f14d c03e 5a43 a93e a06f c1be
00000030: ec59 123e 821d f3be 8859 95bd f918 48be

weight_ih_l0_reverse f4 [16, 4]
-0.37570786 -0.16319267 0.2504108 -0.260412 0.37674174 0.026306964 0.024380736 0.29882786
-0.48645595 -0.33349657 0.32328716 -0.20381795 0.34624648 0.05487962 0.06746585 0.3509179
-0.22035185 0.3770864 -0.25581992 -0.29770884 0.22328256 0.3667628 -0.2603533 -0.26410353
-0.16301897 0.13133398 -0.38855997 -0.18732743 0.089743316 -0.30569503 -0.02302335 -0.005520231
0.50517654 0.24227762 -0.09508305 0.25829488 0.2999484 -0.42586362 -0.38643909 -0.17750154
-0.28818333 0.039584566 0.3939954 0.19081473 0.09501128 0.30845883 -0.13857278 0.16442496
-0.168389 0.12478295 0.4435058 0.112188496 0.025478283 -0.3741846 -0.29451135 0.038233474
0.18109831 0.45313254 0.23472884 -0.37356386 0.3644421 -0.28809673 -0.27376723 -0.0722807
00000000: c85c c0be fb1b 27be d835 803e b954 85be
00000010: 4be4 c03e b481 d73c 1cba c73c f7ff 983e
00000020: c110 f9be 10c0 aabe e585 a53e a7b5 50be
00000030: 3847 b13e 74c9 603d 892b 8a3d 83ab b33e
00000040: eaa3 61be 7811 c13e d4fa 82be 4b6d 98be
00000050: 2fa4 643e 55c8 bb3e 074d 85be 9438 87be
00000060: 72ee 26be 6a7c 063e 55f1 c6be c3d2 3fbe
00000070: 58cb b73d 0f84 9cbe 779b bcbc 0ee3 b4bb
00000080: 4053 013f a017 783e e7ba c2bd 3a3f 843e
00000090: d692 993e cc0a dabe 58db c5be f7c2 35be
000000a0: c48c 93be 6d23 223d c4b9 c93e f064 433e
000000b0: 4695 c23d 51ee 9d3e 06e6 0dbe 045f 283e
000000c0: 2b6e 2cbe 348e ff3d 3113 e33e 15c3 e53d
000000d0: d5b7 d03c 2095 bfbe 31ca 96be b49a 1c3d
000000e0: d671 393e fd00 e83e c25c 703e c343 bfbe
000000f0: 2898 ba3e 6a81 93be 382b 8cbe e707 94bd

weight_hh_l0_reverse f4 [16, 4]
0.18614493 -0.4165371 0.1515514 -0.08494977 0.22941093 -0.14098388 -0.42839095 0.11046749
-0.4795436 -0.09249683 -0.16895568 0.26410764 -0.16191822 -0.37347722 -0.12780042 -0.07954045
-0.48776466 0.030610409 0.031070784 0.2652504 -0.056618154 -0.44973448 0.044209152 -0.0076771164
0.17115416 -0.31008804 0.4705588 -0.21412268 -0.14069729 -0.28460515 0.058833525 -0.057569206
-0.29248706 0.36565867 -0.07817958 -0.40113926 0.23075692 -0.3617981 0.25655764 0.16932991
-0.10942217 0.020326521 0.48869815 -0.09514066 0.40152094 -0.15068078 -0.16954373 0.10544267
0.026105026 0.0011907127 0.23496139 0.039695952 0.198071 -0.076161884 -0.14926857 0.07464908
-0.11905886 0.44182298 -0.45076686 -0.50662744 -0.37528932 -0.20540226 -0.24569348 0.29426223
00000000: c79c 3e3e 5a44 d5be 4a30 1b3e 25fa adbd
00000010: b3ea 6a3e 145e 10be 0f56 dbbe c83c e23d
00000020: bd86 f5be fa6e bdbd b802 2dbe 1e39 873e
00000030: e4cd 25be 6838 bfbe 1dde 02be 1ae6 a2bd
00000040: 4abc f9be aec2 fa3c 2888 fe3c e7ce 873e
00000050: 70e8 67bd 9943 e6be a814 353d 5290 fbbb
00000060: 0943 2f3e dcc3 9ebe 15ed f03e fa42 5bbe
00000070: f312 10be c4b7 91be 6cfb 703d b0cd 6bbd
00000080: ddc0 95be 9d37 bb3e 9e1c a0bd 2062 cdbe
00000090: 8b4b 6c3e 9a3d b9be 865b 833e d264 2d3e
000000a0: bb18 e0bd ce83 a63c a536 fa3e 1bd9 c2bd
000000b0: 2794 cd3e 104c 1abe df9c 2dbe 54f2 d73d
000000c0: 35da d53c b011 9c3a b899 703e 3998 223d
000000d0: 20d3 4a3e c3fa 9bbd dcd9 18be 9ee1 983d
000000e0: 22d5 f3bd 9f36 e23e eaca e6be 56b2 01bf
000000f0: ec25 c0be f854 52be 1297 7bbe 8aa9 963e

bias_ih_l0_reverse f4 [16]
0.2637604 0.18143365 -0.26513946 -0.14193983 -0.12148517 0.10029189 0.21483326 -0.3738536
0.26705468 -0.017573582 0.0032803267 -0.4178361 0.27854022 -0.17983672 0.4735654 0.35979727
00000000: 9a0b 873e bec9 393e 5cc0 87be ad58 11be
00000010: 38cd f8bd d665 cd3d 40fd 5b3e bd69 bfbe
00000020: 64bb 883e 79f6 8fbc c0fa 563b 9dee d5be
00000030: d39c 8e3e 1e27 38be 2a77 f23e 5937 b83e

bias_hh_l0_reverse f4 [16]
-0.2407335 -0.24069113 -0.3092273 0.19309047 0.2599004 0.3665012 0.28481022 -0.14682627
0.10830735 -0.008061274 -0.044442363 0.20490994 -0.11612103 0.1955767 -0.36715114 -0.018224254
00000000: d882 76be bc77 76be 0a53 9ebe 82b9 453e
00000010: aa11 853e 0ca6 bb3e a5d2 913e a059 16be
00000020: 3ed0 dd3d 6f13 04bc 3209 36bd e9d3 513e
00000030: ddd0 edbd 4245 483e 3cfb bbbe 084b 95bc

weight f4 [7, 8]
0.13578212 -0.13584335 -0.12961274 -0.16720223 -0.17036164 -0.17477137 -0.26392838 -0.2791357
0.30956942 -0.087391436 0.22445118 0.15744874 0.08102116 0.09261414 0.35609707 -0.011155205
-0.23940258 -0.15521975 0.09119935 0.07053035 0.009171566 -0.12000165 -0.0066317655 0.2274322
0.113073595 0.2902321 -0.051363267 -0.32848316 0.32689974 0.25090617 0.29806966 0.024341475
-0.2302731 -0.26249033 0.08587686 0.2556983 -0.08548002 0.33620644 -0.15575618 -0.28418845
0.10924448 -0.00619315 0.021813702 0.1293951 0.3109847 -0.06510238 0.14257666 0.26157632
0.14614394 -0.25006092 0.15424521 0.13724601 -0.25474963 -0.22603872 -0.057814263 -0.18510726
00000000: 780a 0b3e 851a 0bbe 34b9 04be 1037 2bbe
00000010: 4873 2ebe 44f7 32be 9f21 87be e0ea 8ebe
00000020: e27f 9e3e 48fa b2bd 88d6 653e 3e3a 213e
00000030: 6cee a53d 7bac bd3d 5b52 b63e 52c4 36bc
00000040: f325 75be edf1 1ebe bac6 ba3d 3772 903d
00000050: 5644 163c 6dc3 f5bd 484f d9bb fde3 683e
00000060: 2193 e73d 4d99 943e 4a62 52bd f22e a8be
00000070: 675f a73e c676 803e 969c 983e c667 c73c
00000080: b6cc 6bbe 2265 86be 35e0 af3d e3ea 823e
00000090: 2610 afbd 4023 ac3e 8c7e 1fbe 2681 91be
000000a0: 92bb df3d e8ef cabb a6b2 b23c 2680 043e
000000b0: 6339 9f3e 6654 85bd 9eff 113e 55ed 853e
000000c0: c2a6 153e fc07 80be 75f2 1d3e 388a 0c3e
000000d0: 8b6e 82be b276 67be a6ce 6cbd c28c 3dbe

bias f4 [7]
-0.2592736 0.049467344 -0.32130766 0.0060217315 0.17946099 0.16511843 -0.0080244485
00000000: 82bf 84be 459e 4a3d 7082 a4be f251 c53b
00000010: 9fc4 373e ce14 293e fa78 03bc
